results/DA3C/DA3C_single_actor/actor_net_trained_1.ckpt (torch, 687617 bytes, 12 tensors)

layers_1.0.weight f4 [200, 20]
00000000: cbdc d9bd 1b47 0f3d f050 8abd f451 c53d
00000010: 6d3a 1cbe 90db 04be 373b 36be 53b9 9e3d
00000020: 839b 48be c0db 563b 3870 e43d dfe0 583e
00000030: a33a 60be 3cd7 a23d 249f 893d 388b 323d
00000040: 2882 b1bd d4e0 573e 003d 1cbd 5068 27bd
00000050: 7ed6 7a3d 1a06 1dbe 1b43 3d3e 1450 ef3d
00000060: e9ba 5dbe 0eb2 2bbd e395 80be 19a1 263e
00000070: c850 9bbd 9343 7abe d2df 3d3e 6b0f 2b3e
00000080: 6d23 533b 4799 f93d b335 c83d 3d92 273e
00000090: 80c5 063d 7cdc 9b3d 9635 e8bb 7d36 433d
000000a0: 004a 033e 235e 53be fb4c 2bbe 0882 79bd
000000b0: 8148 2dbe ed83 0ebe fadb d3bc 76df 9b3d
000000c0: f228 73be c1d5 26be 1922 59be 509c 31bd
000000d0: 2371 4bbc 3311 463e fb7d 8ebd 27fb c7bd
000000e0: 1e6e d73d 1c94 44be 3be4 b0bd ee39 44be
000000f0: d2b0 c63d 2e6b 06be 72ec 4bbd 962e 14be
00000100: b831 273e f230 533e 63b0 153e d6ce c5bd
00000110: 7832 2c3d 33b1 4bbe 089a 88bc 3e4c bc3d
00000120: 666a 1a3e 160f 40be 5813 4e3e 9b19 61bd
00000130: 4f16 813d 9df6 b5bd a3ef a4bb 1525 423e
00000140: ece0 1c3e dd9b da3d c689 18be dae3 673e
00000150: c6c2 07be 8d6b d0bd 4ba5 463e d42b 16be
00000160: 1080 123c 454f 2c3e 30a1 38be 6e6f 1e3e
00000170: e256 8e3d cdcb b93d bc3a 1bbe 792c 823d
00000180: b3f7 193e a29a 03be f9a2 81bd b3fe 913d
00000190: 339a 2abe af64 253e b974 5bbe 6edc f8bd
000001a0: 9436 01bd a4ab 9ebd f099 16be 64cf fb3c
000001b0: 9a9f 013e 3ef4 053e e4f9 5bbd 9c7a f83d
000001c0: ee2e 2dbd 2212 213c 9441 d9bd 6fe7 cf3d
000001d0: 0281 d6bd f434 523e 1239 0d3e 7623 543e
000001e0: 83c2 f3bd 6916 b23d f2e4 963d 3220 48be
000001f0: 9b5a 52bd 9d2a 52bc 84af 393e ee1d 49be
00000200: e06d 9b3d 007f d43c 7ec8 8abd 4cd3 383e
00000210: 0ecc ecbd 92ca bfba a5c4 21bc 5fde db3c
00000220: ce2c d6bd b8fb 29be 8c71 7cbd 3a2a 453e
00000230: a13d edbd e474 1f3e aac1 87bd a6a6 2f3e
00000240: 06ea e53d a2e4 e6bd 4a34 80bb 2646 20be
00000250: e225 773d 8615 033e 454a d8bd 69ab 7abd
00000260: f943 1e3e 55e1 53be 5c9e 5bbe d641 603e
00000270: 08a6 bc3c c23a 5cbe 3d06 51be 20b8 f23b
00000280: 38ef af3d b14a 353e 69a7 f33d 38aa 40be
00000290: a552 1d3d 3e27 12be da46 8dbc ffd1 c6bd
000002a0: 6be9 d7bd cc40 07be 28da 5d3e 302c 8bbd
000002b0: 966a 1ebe 1044 75bd 424f 03bb 80d3 4ebe
000002c0: 02d5 91bd c3e8 133e d08f 0abe 4b37 eabd
000002d0: a844 113e dd2e 25be 163c 9dbd 3f18 6d3e
000002e0: 305f 883c 3aef 2dbe 819f edbd 8530 54be
000002f0: 29c8 b7bd 11b6 e73d 309b 513d a816 90bc
00000300: f6a4 293e 9430 f3bd 31f4 29be 4d58 c73d
00000310: ef95 593e 5f7a a43c 5b01 20bd a360 afbd
00000320: 5221 8bbd 7c52 e6bd 544b c83d 7611 61be
00000330: 7264 82bd c68d 4dbe c481 563e 5466 18bd
00000340: 174e 2dbe c055 71bb fa40 1cbe c27a c5bd
00000350: a0d7 9fbb 1c67 77bd 3847 a03c 2e14 3bbe
00000360: 30fc 3fbd 2071 ef3b 8eb2 83bd 6872 8ebc
00000370: adea 2cbe 49e6 23be a238 063e 0d57 d5bd
00000380: f007 673d e31d 56be d736 0dbe 7434 243e
00000390: ce25 babd a4e7 11be f27a 39be 38e4 b13c
000003a0: 3068 32bd 5035 eabd e82e 1cbe 7849 4d3d
000003b0: b866 423e 1464 6ebd d027 d6bc 6487 c23d
000003c0: 387a 17bd e8ae 72bd 6875 46be 307f 5a3e
000003d0: 2457 203e 7fb4 0bbe 8887 393e adb8 f0bd
000003e0: cf2e d0bd 3c14 11be 30e7 5f3e 23cc 18be
000003f0: 2839 0b3d 2882 0c3d ab88 57be 89b9 59be
-0.10637816 0.03497992 -0.06753719 0.09634772 -0.15256663 -0.12974381 -0.17796026 0.077501915
-0.19590573 0.003278479 0.111542165 0.21179532 -0.21897368 0.07951209 0.06719807 0.0435898
-0.086674035 0.21081859 -0.03814411 -0.040870965 0.061239712 -0.15334359 0.1848263 0.116851956
-0.21653332 -0.041917853 -0.25114354 0.16272391 -0.07583767 -0.2443984 0.18542412 0.167051
0.003221716 0.121874385 0.09775867 0.16364379 0.032903194 0.076104134 -0.007086466 0.047659386
0.12821198 -0.20641379 -0.16728584 -0.060915023 -0.1692219 -0.13917513 -0.025861729 0.07610981
-0.23746088 -0.16292478 -0.21204413 -0.04336196 -0.012417111 0.19342498 -0.069576226 -0.097647004
0.1051905 -0.19197124 -0.086372815 -0.19162723 0.097016945 -0.13126823 -0.04978604 -0.14470896
0.1632756 0.2062414 0.14618067 -0.096585914 0.04204032 -0.19891815 -0.01667501 0.091942295
0.1507965 -0.18755755 0.20124567 -0.05495606 0.06303083 -0.088849284 -0.0050334497 0.18959458
0.15320176 0.1067426 -0.14896306 0.22645512 -0.13257894 -0.10176764 0.19398992 -0.14665157
0.008941665 0.16827114 -0.18030238 0.15472195 0.06950165 0.09072075 -0.15159124 0.06356139
0.15035896 -0.12851956 -0.06329913 0.07128658 -0.16660385 0.16151689 -0.21431245 -0.121514186
-0.03154619 -0.077475816 -0.1470716 0.03073854 0.1265854 0.13081452 -0.05370511 0.12132761
-0.042281084 0.009830983 -0.10608211 0.10151564 -0.10473825 0.20528013 0.13791302 0.20716652
-0.119023345 0.08695681 0.073678866 -0.19543532 -0.05135594 -0.012827543 0.1813336 -0.19640324
0.07589316 0.025939465 -0.06776522 0.18049353 -0.11562358 -0.0014632514 -0.009873544 0.026839433
-0.104577646 -0.1659993 -0.061631724 0.1925439 -0.115840204 0.15571934 -0.06628735 0.17153415
0.11226277 -0.11274077 -0.0039124833 -0.1565176 0.060338862 0.1280118 -0.10561041 -0.061198626
0.15455617 -0.20691426 -0.21447128 0.21900114 0.023028389 -0.2150679 -0.20412536 0.0074072033
0.08590549 0.17704274 0.11897165 -0.18814933 0.038408894 -0.14272782 -0.017245699 -0.09708022
-0.10542568 -0.13208312 0.21665251 -0.067955375 -0.15470347 -0.059879363 -0.0020036255 -0.20197868
-0.07120706 0.1444426 -0.13531423 -0.114363275 0.14186347 -0.16131158 -0.07677476 0.2315378
0.016646951 -0.16985789 -0.116026886 -0.20721634 -0.089737244 0.11314023 0.05117339 -0.017588928
0.16566834 -0.118745 -0.16597058 0.09733639 0.21248601 0.020077882 -0.039063793 -0.08563354
-0.06793465 -0.112462014 0.09779993 -0.21979317 -0.06366815 -0.20073614 0.20947939 -0.037206963
-0.1692432 -0.0036824793 -0.15259162 -0.09642555 -0.0048779994 -0.060401067 0.01956521 -0.18269417
-0.046871364 0.0073071867 -0.06430541 -0.017388538 -0.16886397 -0.16005816 0.13107541 -0.10416994
0.056404054 -0.20909838 -0.13790451 0.16035634 -0.09089242 -0.1424852 -0.18113306 0.021715268
-0.043556392 -0.1143595 -0.15252268 0.050118893 0.18984497 -0.05820091 -0.026142031 0.0949848
-0.03698179 -0.059248835 -0.19380724 0.2133758 0.15658242 -0.13643073 0.18118107 -0.11753974
-0.10165178 -0.14167875 0.21865535 -0.14921622 0.033990055 0.034303814 -0.21048228 -0.21262182

layers_1.0.bias f4 [200]
00000000: bfc9 ee3d 0617 f0bc 8181 653e d7da 03be
00000010: c34a 19be c7bc 5cbe dc0d 753c a0b5 9ebd
00000020: 3007 273e 0710 11be c442 07be 0826 203e
00000030: 0c29 ee3d 1757 213e 9073 9cbd 5173 bb3d
00000040: 6e15 5d3c ba98 d33c 4f41 ea3d b8ec e13d
00000050: 3274 453c 00a8 823d b0dc 54be b4f2 1cba
00000060: 8ea6 d53d 93f6 4a3e 78c4 b33c ed1a b9bc
00000070: 648a 813d 750c 2bbe 70f5 bebd a7dc d33d
00000080: ab4b 91bd a5e0 d9bd e8c1 9a3d 99d8 e2bd
00000090: d096 633e 6733 a4bc 2378 1b3d ee9b 2d3e
000000a0: 41a5 503d 1851 93bd 7a97 0c3e 875d 543d
000000b0: e93c 883d 4740 9fbc c6f0 903c 96d2 de3d
000000c0: 8ce7 303e 2cbe 453e 8a2b c0bd b620 4fbe
000000d0: 8bb5 483e d195 80bd b842 3a3e 62b8 babd
000000e0: 089c bb3d 0069 d93d 331e 1f3e 54d7 be3d
000000f0: 18eb 483e 2ae4 bb3b 15c4 50be 83c8 633d
00000100: 87bf a0bd 8b7d 31be 9d8b 103e 2e4b 0e3e
00000110: d29e 573e 5896 bcbd 908c 73bd 74a1 0e3d
00000120: 3b4c d43d 04a7 41be 4284 343e 391b 43bc
00000130: 8330 643d 372c 553e f98c 17be 09a2 d4bd
00000140: 00e9 0c3d d090 33be 0232 283e ea86 22be
00000150: c07a 593d c9cd 6c3d 2cbb b33d 5f0f 103e
00000160: 19ab 7dbc 69c8 3fbe aee2 353e 4397 93bd
00000170: f7c4 613e d880 623d e3d6 8abd e5e1 c23d
00000180: eb09 5cbe 1ac5 093e e916 91bd 8f40 3b3c
00000190: b77c b2bb d701 533e 742c 44be b8cc a5bc
000001a0: 0e86 d53d 9fd3 20be 13b1 923d e219 d6bc
000001b0: 3f26 b93d 2f7e 633e 68f3 643d 6c99 19be
000001c0: 1ce7 4ebe 3819 cb3d 2c64 203e 28a7 8cbd
000001d0: e0d0 d73c 5326 7abd c852 15bd 3b8e 13be
000001e0: aece 0a3e f017 db3d 7e2e 0a3e f967 903d
000001f0: bcd1 15be 9500 25be 08a9 7fbd a8dc bfbd
00000200: 60f1 5dbc d5fa 1abd 3916 083d 0b70 4bbe
00000210: a1a3 f53d 95b0 003e 47a6 c7bb 7c13 ef3d
00000220: 382d 2b3d 2687 013e caec 173e d82f 313e
00000230: 2a8c 32bd d186 84bd 782e 353e d2d4 8f3d
00000240: f109 9fbd 48e7 f23d b1d6 2a3e ecbf a03d
00000250: 9e96 403e 404a 4bbd 9086 4d3e cd58 1b3c
00000260: c053 4bbb 8f66 96bd 50d8 52bc 0ea6 043e
00000270: 10df 5bbe 0253 373c 4fbd 523e d90f 1ebe
00000280: 27fb d3bd baa3 0cbe e6b0 113e d419 d4bd
00000290: 0939 5aba 15ce 413e 1bf0 43be 4cc5 5f3e
000002a0: a7ee 373e 5822 24bd 2e93 4c3e ed8e 03be
000002b0: 66e4 07be 87f8 1dbe f6ad c63d dba1 c63d
000002c0: f71b 023d 1832 363e dda9 823d ded5 0cbe
000002d0: fecb 363e 4aef 203e 6748 223e 20dd 1a3c
000002e0: a7c3 383d c669 40be 0461 e13d a0f8 453b
000002f0: 5373 8e39 56e5 373e 5c1a 27be aeb8 113e
00000300: 10c4 e5bc a8a3 dfbd 5d69 be3d b9f5 143e
00000310: 2ee6 0bbe 000b 54be 97db 06be 7082 42be
0.11659574 -0.029307853 0.22412683 -0.1287645 -0.14969926 -0.21556388 0.014956918 -0.07749486
0.16311336 -0.1416627 -0.13209063 0.15639508 0.11628923 0.15755878 -0.07639229 0.09152854
0.013493879 0.025829662 0.11438238 0.11031479 0.012051629 0.063797 -0.2078731 -0.00059870933
0.104321584 0.19820623 0.02194427 -0.022595847 0.06325224 -0.1670397 -0.09324157 0.103448205
-0.07094511 -0.10638551 0.07556516 -0.11076469 0.22225499 -0.020044042 0.03795637 0.16954014
0.05093885 -0.07193202 0.13729659 0.051847007 0.06652243 -0.01943983 0.017692935 0.1088001
0.17275828 0.19310826 -0.093833044 -0.20227322 0.19600503 -0.06278575 0.18189514 -0.091171995
0.0916062 0.1061573 0.15538864 0.09318414 0.19620931 0.0057339864 -0.203873 0.055611145
-0.07849031 -0.17333047 0.14115758 0.13895866 0.21056679 -0.09208363 -0.059460223 0.034821942
0.10366102 -0.18911368 0.17628577 -0.011908346 0.055710327 0.20817648 -0.1479987 -0.10382468
0.034401894 -0.1753571 0.16425326 -0.15871778 0.05309558 0.05781344 0.087759346 0.14068364
-0.015482687 -0.18728794 0.17762253 -0.07206585 0.22047792 0.055298656 -0.06779268 0.09515742
-0.21488158 0.13454095 -0.07084448 0.011428966 -0.005446996 0.2060617 -0.19157583 -0.02023922
0.104259595 -0.15705727 0.071626805 -0.026135389 0.09040498 0.22216104 0.055896193 -0.14999932
-0.20205349 0.099169195 0.15663213 -0.0686782 0.026344717 -0.061071705 -0.0364559 -0.14409725
0.13555405 0.10697925 0.13494298 0.07051081 -0.14630789 -0.16113503 -0.06241706 -0.09368259
-0.013546318 -0.03783687 0.03322432 -0.1986696 0.119941 0.1256736 -0.00609282 0.11673638
0.04179117 0.12649211 0.14836422 0.17303407 -0.043590702 -0.06471027 0.17693508 0.07023014
-0.07765568 0.1186052 0.16683461 0.07849106 0.18807456 -0.049631357 0.20070863 0.009481621
-0.003102526 -0.0734378 -0.012868956 0.1295397 -0.2147181 0.011189224 0.20580028 -0.15435733
-0.10350638 -0.13734332 0.14227638 -0.10356489 -0.0008324539 0.1892627 -0.19134562 0.21852607
0.17962132 -0.040071815 0.1997802 -0.1284749 -0.13270721 -0.15426837 0.09701149 0.0969884
0.03176495 0.17792547 0.06380055 -0.13753459 0.17851254 0.15716282 0.15847932 0.009452134
0.045108464 -0.1879035 0.110048324 0.0030208007 0.00027170274 0.17958578 -0.16318649 0.14230606
-0.028047591 -0.10919887 0.0929744 0.14546861 -0.13662025 -0.20707321 -0.13169704 -0.1899507

layers_1.2.weight f4 [200, 200]
00000000: 00e5 67bc 5aa5 833d 0d58 46bd e7a0 04bc
00000010: 7f43 933d 7f2f 7bbc fa1e 76bd 56c8 81bc
00000020: 009a 7e3d e8e9 c83b c0d1 41bc 1b1c 81bd
00000030: d49c 58bd 0fa7 fd3b c975 873c 106e 92bc
00000040: b66b 1bbd 91ce 13bd 8d07 3dbc 905b 643c
00000050: 5a1d 31bd e23b 003d 6e2d 3fba b8df 1fbc
00000060: dd1c 18bd d0de 2ebd ea77 2e3d 5edb 72bd
00000070: 6a5b 0b3d ab4e 6abd dc75 6dbc 87fd 15bd
00000080: c4be 4e3c 461a 7fbd dabc 1b3d 7435 26bd
00000090: 926b 8bbc ec7f 4ebd 857d 8fbc 543f 173c
000000a0: f6ed 50bc a11e 663d bda1 83bd de22 783c
000000b0: 9fb7 36bc a5e6 3ebd 67a2 ad3c b8f7 433d
000000c0: 42ad aebc 8499 7f3d d57d 84bd 4f91 27ba
000000d0: 307b a33c 12ba 893b f71e 3dbd e30a 723d
000000e0: 499b 81bd edfe 1d3d c977 67bc f23a 02bd
000000f0: 2d78 8fbd 9997 99bc 47d4 223d b5e1 31bc
00000100: 4591 483d b6c4 0ebb bcd5 04bc 0c5a 4c3c
00000110: 8c00 f63c 2642 8bbd 3cce 2c3d e0a7 bfbc
00000120: 20fe 443d 4c0a 34bd e53c 4e3d 8e28 c0bc
00000130: ed18 883d cfe5 e43c 6a3c 70bd da2c 22bc
00000140: af6e 813d aa49 5abd 7068 efbb 2b30 ac3c
00000150: 142b c43c bb47 953c b6b3 413d c399 83bd
00000160: 5129 0a3d d46a b5b7 9cf5 e73c 6f58 3cbd
00000170: 2b18 3abc 460d 113d 27e6 f5bc 1796 92bd
00000180: c92b cbbb 2c00 61bc 140f ee3c 0d32 89bd
00000190: 65ec 2b38 d75d f4bc 04b8 ef3c 94ad 853c
000001a0: a1ff 143c 5293 45bb 18fd 69bb 4361 783d
000001b0: c876 4abd 5755 01bd 3403 413d b333 2cbd
000001c0: 9468 e03c 5a0c 4a3d e831 243c bd41 583d
000001d0: 566f 2ebd 8472 0f3d 8042 903b 31ea 063c
000001e0: 268c 613d 5782 50bd 9088 5ebd f968 0cbd
000001f0: 851c 7ebd cad0 5dbc f588 883d a0a6 a9bc
00000200: 3033 043c 93c6 0cbd b068 2fbc d603 943d
00000210: 6e2a aa3d 7bf7 4cbd 52b8 e3bb 40e4 15bb
00000220: 90a9 873b f0ba f4bc 93a9 4dbd d079 133d
00000230: cbf9 7a3d 7e51 79bd ac9f 6b3d 08a8 4abd
00000240: 2078 773d 912e 8b3d 15c2 4ebd 8955 83bd
00000250: 9e13 da3c 8563 80bd a99a 46bd 4479 143d
00000260: b242 243d 4aff 613d aaf5 b0bc 4dcb ae3c
00000270: 2c20 773d 71a9 733d 488a 2fbd 78d9 0abd
00000280: 2cc5 743d edcd f6bc 4e9d bfbc 8810 77bd
00000290: 99ff b1bc 02c7 29bc ccae 463d 4702 7cbd
000002a0: f622 213c fe35 453d a89d 42bc 94b7 813d
000002b0: 5081 8ebd d606 403b 2083 25bc d9d1 38bd
000002c0: e4b1 583d 9dd1 883d 7f36 193c d290 183d
000002d0: 87ec 3e3d 2109 0b3d 7251 01bd cf24 5fbd
000002e0: 9f9c 2b3d 868c 71bc 388c 6a3c c0bc 9b3d
000002f0: 5aa7 84bc 0ce8 45bb ecec 25bd ed50 1b3c
00000300: 6dfa 95bb ac2c 4d3d 003f 153d 5e62 b03a
00000310: 94c0 27bd d037 e13c d017 a63c 8992 06bd
00000320: cde3 803d 0c13 b8bc ad88 b53d 414e c53c
00000330: 103f a33d a2a7 00bd dc8d 85bd 232e 93bc
00000340: 052a e43c a518 ae3d 4fd8 08bd d817 25bd
00000350: ee93 073d 3122 3fbd 9da8 ba3c f2e5 da3c
00000360: f39e 993d d6f6 2d3d 92a0 a63c e680 7a3d
00000370: 96f6 bd3c 6fee 893d b3d3 34bb 2841 b43d
00000380: 5bac 533d f317 3a3b c034 17bb 8e9c debb
00000390: c2cf dbbc bdb7 80bd ccfc 84bd 4b15 66bd
000003a0: 3f8d 493d 2f6e 2abd aad4 3e3d 8026 f6ba
000003b0: 2dba 7b3d 1c88 8bbd cb5b 77bd d24f 0ebd
000003c0: 6773 603d bdd1 65bc be16 51bd 2079 b53d
000003d0: 5058 4dbd ad5c b7bc f893 943c c2cb 2b3d
000003e0: d201 cfbc f5dc ea3c d775 803d 0288 933d
000003f0: c276 3dbb d27d e4bc de3e f83a f6de 94bc
-0.014153719 0.06428023 -0.048423816 -0.008095003 0.07190608 -0.015331148 -0.060088135 -0.015842598
0.062158585 0.0061313994 -0.011829793 -0.06304189 -0.052883938 0.007740862 0.016535657 -0.017874748
-0.037944518 -0.03608567 -0.011537445 0.013937846 -0.043240882 0.03130711 -0.00072928413 -0.009757929
-0.0371369 -0.04269296 0.042594828 -0.059291236 0.034022726 -0.05720393 -0.014493432 -0.036618736
0.012618724 -0.062280916 0.0380219 -0.04057832 -0.017019067 -0.050414965 -0.017515907 0.009231407
-0.012752047 0.056181554 -0.064273335 0.015145032 -0.011152177 -0.04660668 0.021195604 0.047843665
-0.02132285 0.062402263 -0.06469313 -0.0006392197 0.019956201 0.0042030895 -0.04617211 0.059092414
-0.063284464 0.038573194 -0.01412768 -0.031794496 -0.070053436 -0.018749045 0.039753225 -0.010857035
0.048966665 -0.002178473 -0.008107599 0.012472641 0.030029558 -0.06799726 0.042188868 -0.023395479
0.048093915 -0.043955132 0.050351042 -0.023456838 0.06645379 0.027941613 -0.058651365 -0.009898389
0.06319939 -0.053292908 -0.007306151 0.021019062 0.023946323 0.01822268 0.047290526 -0.06425812
0.03373081 -2.1626627e-05 0.028315358 -0.045982774 -0.011358301 0.03541305 -0.030016972 -0.071575336
-0.006200288 -0.013732951 0.029059924 -0.066989996 4.0989737e-05 -0.029829903 0.02926255 0.01631812
0.00909415 -0.0030147624 -0.0035703834 0.06063963 -0.049429685 -0.031575527 0.047122195 -0.04204149
0.027393617 0.049328186 0.010021664 0.052797068 -0.042586647 0.03502132 0.0044024587 0.0082345465
0.055065297 -0.05090555 -0.054329455 -0.034279797 -0.062038917 -0.013538549 0.066667475 -0.020709336
0.008068845 -0.034369063 -0.010706112 0.07227294 0.08308874 -0.050040703 -0.006949463 -0.0022871643
0.0041400865 -0.029874295 -0.050210547 0.03600484 0.061273377 -0.060868733 0.05752532 -0.049476653
0.060417295 0.06795991 -0.05047806 -0.06412799 0.026620682 -0.06268982 -0.04848734 0.03624846
0.040102668 0.055175103 -0.021601517 0.021337176 0.060333416 0.059487764 -0.042856485 -0.0338988
0.05975835 -0.03012749 -0.023390438 -0.0603185 -0.021728324 -0.010362389 0.048506543 -0.06152561
0.0098349955 0.048147194 -0.0118784085 0.06333843 -0.06958258 0.002930095 -0.010102063 -0.045122
0.052904025 0.066806056 0.009351372 0.037247486 0.04661229 0.033944253 -0.031571813 -0.054478463
0.041897412 -0.014742976 0.014315657 0.076043606 -0.01619308 -0.0030198125 -0.04050915 0.009479743
-0.004576972 0.05009143 0.036437035 0.001345705 -0.04095514 0.027492434 0.020275027 -0.03285459
0.062934496 -0.02247002 0.088639595 0.024085166 0.079710126 -0.031409867 -0.06521198 -0.017966336
0.027852068 0.08500794 -0.033409413 -0.040305942 0.03310006 -0.046663467 0.02278548 0.026720975
0.0750102 0.04247173 0.020340238 0.061158083 0.02318887 0.06734931 -0.0027592003 0.0880149
0.051678043 0.0028395623 -0.0023072213 -0.006793565 -0.026832465 -0.06285045 -0.0649353 -0.05617265
0.04920697 -0.041608986 0.04658953 -0.0018779784 0.061456848 -0.0681307 -0.060390275 -0.03474409
0.054797556 -0.014027056 -0.05104708 0.088609934 -0.05013305 -0.022383058 0.018136963 0.041942365
-0.025269423 0.028669814 0.06272476 0.07203676 -0.0028909897 -0.027892027 0.0018939634 -0.018172722

layers_1.2.bias f4 [200]
00000000: 05aa 7b3d 1fdb 633d 8bf5 aa3c 8481 44bd
00000010: 1504 4c3d 140d 4a3d 9aa9 52bd c81c dd3c
00000020: dc34 073d 17ab 2fbc 471c 903d f6d4 73bd
00000030: 036a ca3c 3cc4 db3c 9262 6bbd a2ff 663d
00000040: e7c0 d03c 192a 323d b4cd 013d 39d7 5dbb
00000050: 2867 5ebd f0fe 1ebc b4a5 58bd 8550 17bc
00000060: f868 d4bc 6cdb 903d c8dc 71bc eb79 f93c
00000070: e9ba 593d 4017 29bd 6418 fa3c 544a e63c
00000080: 7f97 403d 13f2 3a3d d546 343d d657 2bbd
00000090: 0a2d 89bd 98cf 573d 701e 623c 0bdb 813d
000000a0: 4e18 96bd d4c2 553d 6a82 2dbd 52a4 153c
000000b0: e502 b13c 6331 5b3d 261f 373c 8bba c93c
000000c0: d70e a5bb 70b7 973c 60aa 20bd 400f b43a
000000d0: 9c37 e9bb e442 7ebc ebb4 7b3d 5303 07bd
000000e0: d7ea b0bc 8aae 8dbd 6d81 19bd 5250 22bd
000000f0: 0192 823d 5ee7 5bbd b92c 903d 9ebe 193c
00000100: 759c 5abd c877 6f38 962d 893b bbbc 23bb
00000110: 9ea2 a8bc cea5 5e3d 312e 0fbd e6f7 89bd
00000120: 7a21 bb3c 952b cc3a ed43 50bd 8415 90bd
00000130: 9537 63bd 3202 043c 6bac 92bb 9c13 1abd
00000140: 6b69 d43c 3d3a 713d 4288 1abc 37b2 3abd
00000150: b6b8 86bc 9feb 373d ced2 193b 8b07 35bc
00000160: d359 da3c 3bd9 4abd 9285 883d a025 07bd
00000170: e4b5 cb3c 8002 6cbd eee9 353d 98d2 773d
00000180: 9c1e f1bc 099b d63c 4669 61bd bc6b 423d
00000190: 38e9 873c 689b 313d bc58 82bd be79 6a3d
000001a0: d07a 5a3d 0cb8 80bd bd3c 073d 911e 143c
000001b0: 5849 ec3c 1423 473d d85c 47bc b8ce 553d
000001c0: d132 21bd ffe0 8d3b d2c9 21bd 85b5 96bc
000001d0: 0441 debc 2b0d 6fbd f262 413c 348e 493d
000001e0: 1370 88bd 3e69 633d 333d 89bd e40c eb3c
000001f0: a6ca 0abd c81c 3ebc 9870 863c 5df5 2fbd
00000200: 7090 d33b 1089 523d a3ab 4a3d 22b8 59bd
00000210: feef 91bd dbf8 7bbd b0fb 493d a8f6 7ebc
00000220: 130d e0bb 3f6d 72bd ee56 22bd c32c 4cbd
00000230: d8fa e13c 3255 c43c af5f f63b c80f 87bd
00000240: 201e e0bc 29b0 d63c 12b4 403d 9ce1 8c3a
00000250: eb6e debc 5cfd 80bd ac0d 0cbc 9668 dabc
00000260: f0d1 f63c 20f1 c7bc db9e 273d a274 753d
00000270: 3d1e 833d c818 0ebd a166 cd3c e55b 323d
00000280: 2c53 9abc e2a7 a93d cd0b 783d c24a 4cbd
00000290: e118 183d 395a 1fbd 3e25 7e3d e690 a13d
000002a0: fa7a 44bd 4636 b7bc e0c4 173d 76b8 dbbc
000002b0: e90f 813d da9a 72bd 0282 fe3c 7a1a 26bd
000002c0: 589a 743c 6d4c 143d 1f39 8d3d 1ee9 853d
000002d0: c52c 8f3d ab36 fe3c c4bf 69bd 8017 4f3a
000002e0: 4be0 183d 5cf9 893d c92e 4c3d 4c45 15bd
000002f0: 46e8 4cbc c867 1bbc bafa 85bc f8bb 23bd
00000300: cce2 79bd 442d 753d 6b95 0cbc 1845 83bd
00000310: 606e 353d 97f3 e33c 2bfe 87bd a938 47bd
0.06144144 0.055628892 0.020869037 -0.04797508 0.04980858 0.04932888 -0.051431276 0.026991263
0.033009395 -0.010721943 0.070366435 -0.059529267 0.024708753 0.02682697 -0.05746705 0.056396134
0.025482608 0.04349718 0.031690314 -0.0033850207 -0.054297596 -0.0097043365 -0.0528924 -0.009235506
-0.02592896 0.070731014 -0.014762111 0.030453643 0.053156767 -0.04128194 0.030529208 0.028111614
0.047019478 0.045641016 0.044012863 -0.041831814 -0.06698044 0.05268821 0.013801202 0.06340607
-0.073288545 0.052187756 -0.0423607 0.009133415 0.021607826 0.053513896 0.01117686 0.024625083
-0.0050371694 0.018520087 -0.039224982 0.0013737455 -0.007117225 -0.015518878 0.061451834 -0.032962155
-0.021596355 -0.06918056 -0.037476946 -0.03962738 0.06375504 -0.053687446 0.0703978 0.009383826
-0.053371865 5.7093595e-05 0.0041863425 -0.0024984318 -0.020585354 0.054357342 -0.03495616 -0.06736736
0.022843111 0.0015576953 -0.05084603 -0.07035354 -0.05547293 0.008057164 -0.00447612 -0.037616357
0.025929173 0.05889343 -0.0094319 -0.045580115 -0.016445499 0.04490244 0.0023471597 -0.011049162
0.02665416 -0.049523573 0.066661015 -0.032994866 0.024867006 -0.05761957 0.044412546 0.060503572
-0.029433541 0.026196973 -0.055032037 0.047466025 0.0165907 0.043361098 -0.06364581 0.05724501
0.05333978 -0.06285104 0.03301691 0.009040491 0.028843567 0.048617437 -0.012168132 0.052199095
-0.039355103 0.0043298 -0.03949911 -0.018397102 -0.027130611 -0.058362167 0.011803376 0.04920788
-0.066620015 0.05552029 -0.06701126 0.02869267 -0.033884667 -0.011603542 0.01641111 -0.042958606
0.0064564273 0.051400244 0.04948009 -0.05315412 -0.07125853 -0.061516624 0.049312294 -0.015561737
-0.006837496 -0.059186216 -0.039633684 -0.049847376 0.027585432 0.023966406 0.0075187306 -0.06594807
-0.027358115 0.026207047 0.04704673 0.0010748389 -0.0271525 -0.062983245 -0.0085481815 -0.026661199
0.030129403 -0.02440697 0.04092298 0.059925683 0.06402252 -0.034691602 0.025073351 0.04354467
-0.018838488 0.08283974 0.06055813 -0.049875982 0.0371331 -0.038904402 0.062047236 0.07888965
-0.047968842 -0.022364747 0.03705299 -0.026821356 0.06301863 -0.05922971 0.031067852 -0.040552594
0.014929377 0.036205698 0.068956606 0.06538604 0.06990961 0.031031927 -0.057067648 0.0007899925
0.037323277 0.06737015 0.049849305 -0.03644304 -0.01250655 -0.009485193 -0.016354907 -0.039974183
-0.061007306 0.05985762 -0.008580546 -0.06409663 0.044294715 0.027826114 -0.066402756 -0.04863802

layers_1.4.weight f4 [200, 200]
00000000: a085 963c 1959 76bd a024 5b3d 703e fdbb
00000010: a096 0f3c 186a 223c e47a 2bbc 101c ddbb
00000020: 0d74 8e3d 900d 91bb fd69 76bd 6e53 373d
00000030: 601d 463b 1cd6 5abd f48c fcbc 0af3 19bd
00000040: bc67 ee3c d0e2 173c 6003 373b c052 253b
00000050: 6a92 1c3d 8c73 a13c 00ed c0bb 0aaa 163d
00000060: 45dd 1cbd c0c0 81ba 7000 7d3c 85c5 85bd
00000070: 8a42 16bd 91cb 0fbd 6435 813c b2bd 75bd
00000080: 0b07 02bd 60ed d23b b83b 2cbc 8b01 3dbd
00000090: e545 883d b439 0a3d 587f bb3c 84ec 2c3d
000000a0: 8463 1d3d 4477 63bc 94e6 9a3c 80e4 b43c
000000b0: ec42 153d 25ec 7dbd c039 c6bb a8a9 ae3c
000000c0: 2dbe 6ebd 305d f53c 6028 f13c 2828 d3bc
000000d0: 7b4e 883d 5c79 59bd 98fa 6c3c 2221 793d
000000e0: c091 f83a 8019 dd3b c2bd 10bd 582e 7bbc
000000f0: 641b 17bd d080 0e3d 00d6 003b 1b5b 863d
00000100: f76d 80bd 90eb 3cbd 98fd 123d 6c75 6ebc
00000110: 41bf 8dbd 2414 72bd 908c d73b a8e6 943c
00000120: 3b7f 08bd c4dd cfbc 4302 71bd 40c6 413c
00000130: 73c3 843d 288b b4bc 5de3 863d 5c6f 90bc
00000140: 3668 743d a8f5 b73c a463 c53c b88a c4bc
00000150: 937b 863d c03d 353d 401b 02bb 2414 3f3d
00000160: 828b 75bd 8cb2 2abd 1a4d 493d 67e5 883d
00000170: 1225 61bd 6352 01bd 7405 c03c 16fb 6b3d
00000180: ace3 eb3c 38d3 4e3c e49d 903c 16c4 f3bc
00000190: 4a00 353d d28f ebbc 7961 8b3d 9829 9f3c
000001a0: 7c48 1cbd 4cae 15bd a46b d4bc 2c8f bbbc
000001b0: 2675 4b3d b681 6a3d bd78 843d 5009 5f3c
000001c0: 28c6 32bd 44df b0bc ea86 733d 282c a3bc
000001d0: 0c42 e53c 7c02 b6bc 7668 583d 1c5b 5abd
000001e0: c0e4 4b3d 64d5 c9bc 90c7 963c 0cdf f6bc
000001f0: cc14 a8bc 3089 90bc 42d5 2cbd e6ba 78bd
00000200: 004a 7a3b d8c9 f53c 22fb 503d b80a d7bc
00000210: 786b 4d3c 0d68 8b3d ff42 5cbd 4061 1c3d
00000220: ea4e 0e3d b7a8 8e3d c8e5 273c d63f ecbc
00000230: 10aa 3b3d d0ae 583d 3355 1fbd 34af 553d
00000240: b968 62bd bc5a ca3c bc5d 593d 580c 033d
00000250: ca82 433d da17 12bd 62c7 debc 5096 cf3c
00000260: 6422 18bd 2c18 18bc e26d 263d a4fb a13c
00000270: 3499 023d 3167 81bd 5f58 6ebd b0bf 2fbc
00000280: 7352 8dbd fe45 22bd 7093 dfbc e8a9 9d3c
00000290: 54bf febc 52ef 603d b5ae 84bd e6bd 523d
000002a0: 22ba 13bd e497 80bd 7a34 95bc 0ce7 eb3c
000002b0: c010 faba 44a4 7bbd b8cd 3a3d 3a63 d8bc
000002c0: 84d4 d5bc 44f4 e93c 2884 433c 797f 0fbd
000002d0: 1a54 423d 8230 8dbc 49f3 863d 9523 26bd
000002e0: 04c1 09bd 951c 04bd 2cab d3bc bcc8 fc3c
000002f0: d584 883d db39 0fbd 0816 ac3c 3418 9dbc
00000300: f31d 09bd c04a 51bb a43d 88bc b880 1e3c
00000310: e03f 343c 3804 793c 2691 673d 3515 16bd
00000320: 82fc d83a abff 813c 503a 77bd 9665 4ebd
00000330: 8f6d 56bd f0a3 c7bb 7bd3 9bbc 7058 bd3b
00000340: 42f5 4cbd 919e 683d 4cd7 ea3c 75d3 9cbb
00000350: d6b3 0a3d 25e9 01bd d5f8 56bc 1e40 22bd
00000360: bba5 fcbc 343e 31bd 729e 33bc 7bb3 393d
00000370: 6a7b 353d 7581 873d 6e2e 7e3d 6e8d 31bd
00000380: 3c21 143d 7111 ecbb b059 953c ad0e 623d
00000390: db0c 57bc 8e4f 483d 628d cebc f221 a53c
000003a0: 0261 f93c 83ab f13c a70d 3a3d 8c68 a63d
000003b0: 5662 44bd d07b dabb c603 77bd f160 0d3d
000003c0: b470 583d b018 af3b 5186 053d 49f3 f8bb
000003d0: 1c88 46bd 7fc4 1ebc 7961 163c 63da edbc
000003e0: fb2a 1e3d d18c 5c3c 76a2 a83b 061c 773d
000003f0: 5662 85bd 2243 e03c 81c3 8abb fa77 dcba
0.018374264 -0.060143564 0.053501725 -0.0077283904 0.008763939 0.00991299 -0.010466311 -0.00674773
0.06955729 -0.0044266656 -0.060159672 0.0447573 0.0030229911 -0.053426847 -0.03082893 -0.037585296
0.029102199 0.009270385 0.0027925596 0.0025226325 0.03822557 0.019708417 -0.0058876276 0.036783256
-0.038296957 -0.0009899363 0.015441999 -0.065318145 -0.03668455 -0.035106245 0.015772529 -0.05999536
-0.031744998 0.0064369887 -0.010512285 -0.04614405 0.06653956 0.033746436 0.02288787 0.042217746
0.038424984 -0.013883416 0.018908776 0.022081614 0.036440775 -0.061992783 -0.006049365 0.021321133
-0.058286835 0.029951662 0.029438198 -0.025775984 0.06655594 -0.053094253 0.014464043 0.060822614
0.0018964335 0.0067474246 -0.035337217 -0.015330873 -0.036891356 0.034790814 0.0019658804 0.06560346
-0.06270974 -0.046123087 0.035886377 -0.014554363 -0.069212444 -0.05910124 0.0065780357 0.018176392
-0.03332446 -0.0253743 -0.058840048 0.011827052 0.064825915 -0.022039011 0.06586335 -0.017631225
0.059669696 0.022456005 0.024095364 -0.023991928 0.06566539 0.044248343 -0.0019852668 0.046650067
-0.0599475 -0.04167418 0.049145795 0.0668438 -0.054966994 -0.03157271 0.0234401 0.0576125
0.028795086 0.012623601 0.017653413 -0.029756587 0.04418973 -0.028755102 0.06805701 0.019429013
-0.038155064 -0.036543176 -0.025930233 -0.022895418 0.04967227 0.05725261 0.064683415 0.01361306
-0.043646008 -0.021590836 0.059454836 -0.019918516 0.027985595 -0.022217982 0.052833997 -0.053309545
0.0497787 -0.024637885 0.018405706 -0.030135654 -0.02051773 -0.017643541 -0.042195566 -0.060725115
0.003819108 0.030003473 0.05102075 -0.026250228 0.01253783 0.068069555 -0.05377483 0.038178682
0.034743227 0.069657736 0.010247655 -0.028839033 0.04581648 0.05290109 -0.03889961 0.05216904
-0.055275653 0.024701469 0.053067908 0.031994194 0.047732152 -0.035667278 -0.027194683 0.02534023
-0.037142172 -0.009283107 0.040632136 0.019773312 0.031884387 -0.0631851 -0.058189746 -0.010726854
-0.069004916 -0.03961753 -0.027291983 0.019246057 -0.031097092 0.054915734 -0.06478635 0.051450633
-0.036066182 -0.06278971 -0.0182135 0.028796695 -0.0019078478 -0.061435953 0.045606345 -0.026414502
-0.026102312 0.028558858 0.011933364 -0.035033677 0.047443487 -0.017235044 0.06589372 -0.040561277
-0.03363134 -0.03225382 -0.025838457 0.030857436 0.06665961 -0.034967285 0.021006599 -0.01917658
-0.033475827 -0.0031935424 -0.016630955 0.009674244 0.011001557 0.01519876 0.05653491 -0.03664132
0.0016554745 0.015868982 -0.060358346 -0.05038985 -0.052350577 -0.006092541 -0.01902174 0.005778365
-0.050038584 0.056791846 0.028667115 -0.00478595 0.03386291 -0.031716485 -0.01312085 -0.03961193
-0.030840745 -0.043272212 -0.010963069 0.04533718 0.04430715 0.06616489 0.062055998 -0.04334777
0.036164507 -0.0072042276 0.018231243 0.055189777 -0.013125624 0.048903994 -0.025213901 0.020157788
0.030441765 0.029500728 0.045423176 0.081254095 -0.047945343 -0.0066675916 -0.060306333 0.03451628
0.052841857 0.005343519 0.032598797 -0.007597361 -0.048469648 -0.009690403 0.009178513 -0.029034799
0.038615208 0.013461308 0.00514632 0.06032946 -0.06512897 0.027375761 -0.0042347317 -0.0016820424

layers_1.4.bias f4 [200]
00000000: 228b f4bc 05d5 1abc c00a d03b b8b7 3abc
00000010: 713b 28bb ec1b 933c f7ca eebc cb19 863d
00000020: c833 cf3c e537 50bd f3e3 d93c c4e9 ce3c
00000030: 617a 2ebd 12a5 503d 42f8 81bc eab0 50bd
00000040: dd5e 7abc accc 42bd b142 783c f2a2 70bc
00000050: 3d78 863d 52fb f63a 48a4 5b3c 6b6b 3f3d
00000060: f1d8 4bbd 400b 3f3c 3043 273d 1a4f 143d
00000070: 20a8 0a3d d4c1 883d 3986 07bd 64b8 88bd
00000080: 7087 73bb a563 58bc 8e6f 873c d12d afbc
00000090: 2b73 183d f3b0 23bd 8502 9abc 5f73 313d
000000a0: 58d9 683c 9471 3b3d b835 0dbd f469 953b
000000b0: 5064 4dbd e32d 98bd 22fd 80bd b562 af3c
000000c0: b879 b9bc f251 88bd f639 693c 6e72 383d
000000d0: ce84 653c a2a5 81bd 362a 53bd 320b c33c
000000e0: 1840 64bd 2f19 c33c c809 52bc 40d4 a2bb
000000f0: c7dd e5bc ac9b 023d dde5 b6bc 6228 b23c
00000100: ce1c 9abc 5b4c 9ebb 84dc 5bbd f4f6 b93c
00000110: 0377 183c 9bc1 64bd 4d81 7cbd b525 2f3c
00000120: 0efd 563d e87f e6bc 927b 26bd e637 3d3b
00000130: 7aba 10bd a861 3abd e1ed bcbb 78ea 90bc
00000140: 2acd debc 5741 88bd 0e9e 033d c2fa 973d
00000150: 1250 703d 688f 1fbc 83b7 353d 3242 903d
00000160: 327d 5abd fb13 553d 0429 e73b 3c2f 2abc
00000170: ce6c 363c 7614 62bd 5362 8bbd 0a1d 9abc
00000180: c9d6 873d ec2f 0ebc 35d9 40bd f0c5 243d
00000190: 9261 55bd 588f 793d 2c2c 79bd 2683 c0bc
000001a0: d019 433d a2be c23c 25dd e63c 58d6 2abd
000001b0: 3d3b 3fbd f73a dbbc 6ad1 c73a 4d80 0abc
000001c0: 6ff3 333d 1ac1 f8bc a9ac 6abd 77c7 02bd
000001d0: 5e8a 453d 7e4f 1d3d 3436 ccbc 5a98 0cbd
000001e0: 8d80 87bd e71f 50bc 3317 47bd d885 413c
000001f0: ddea 4fbd 0c89 57bd dfe3 083d fe06 143d
00000200: f649 623c d0d9 2a3c dca8 5f3d e63b 3e3c
00000210: c0a5 9e3d 8b58 193d ec9a fbbc 85c5 88bd
00000220: 59e5 9f3d 625b 61bc 9a2b 7e3d db76 55bd
00000230: b02e 303d aa36 2d3d 23a5 f4ba 3627 aabc
00000240: f0f5 083d fb1e 82bd c946 2fbc 1306 80bd
00000250: b98c 873d dedf 07bd 0011 7f3c df4f 5b3c
00000260: 61ee 44bc fe85 313d 384e 523d 1d4d 8bbc
00000270: 7cbb ec3c 9010 3b3d 24e8 37bc 42a8 293c
00000280: 335e 2d3d 7ee6 873d 3440 70bd d4dd 3bbc
00000290: 47b0 2f3d 9a7c be3c 22f0 3bbc 247a 1ebd
000002a0: 6ba6 61bd e301 feb9 4fdb 9a3d 8032 ef3a
000002b0: a112 26bd 265d c53a fc00 833d 1c0b 8a3d
000002c0: dadc 97bd 1ab4 63bd 90b5 e53c e774 753d
000002d0: 6c63 d83c d0d5 b1ba ce71 25bd 67f9 93bd
000002e0: 2ac1 423d 9614 8cbc 7a21 2a3d 8559 86bd
000002f0: 3673 9abb 884d 013d 67a4 43bd 7071 4ebc
00000300: 526d 783a fb18 e6bb 7faf b3bc 1543 b93c
00000310: d04d 133d 802f dbbb 34d4 443d 812e 703d
-0.0298515 -0.009450202 0.0063489377 -0.011396341 -0.0025670195 0.01795765 -0.029149516 0.06547888
0.025293246 -0.050834555 0.026597952 0.025257953 -0.04259718 0.050938673 -0.015865449 -0.05094997
-0.015281406 -0.04755847 0.015152619 -0.014687287 0.065659024 0.001884321 0.013405867 0.0467333
-0.04976744 0.011660397 0.04083556 0.03620825 0.033851743 0.06677595 -0.03308699 -0.06675795
-0.0037159584 -0.013207351 0.016532686 -0.021384152 0.037219208 -0.039963674 -0.01880003 0.043322917
0.014211975 0.045762613 -0.03447506 0.0045597497 -0.050144494 -0.07430627 -0.06298281 0.021409372
-0.022641048 -0.06656255 0.01423501 0.045031004 0.014008714 -0.0633042 -0.051553927 0.02380905
-0.055725187 0.02381572 -0.012819715 -0.00496915 -0.028059853 0.03188674 -0.022326404 0.021747772
-0.018812563 -0.0048308796 -0.053677097 0.022700764 0.009305718 -0.0558487 -0.06164675 0.010690142
0.052487426 -0.028137162 -0.04064519 0.002887243 -0.035334088 -0.04550329 -0.005765662 -0.017689928
-0.02719744 -0.066530876 0.032133155 0.07420875 0.05867011 -0.009738781 0.044364464 0.07043876
-0.05334205 0.052021008 0.00705445 -0.010387238 0.0111343395 -0.055195294 -0.06805863 -0.018812675
0.06632764 -0.008678418 -0.047082145 0.04022783 -0.052095003 0.06092772 -0.06083314 -0.023500036
0.04763204 0.023772541 0.028181622 -0.04170832 -0.046687353 -0.026761515 0.0015244905 -0.008453441
0.04393333 -0.030365516 -0.057293568 -0.031928506 0.04822766 0.038405888 -0.02492819 -0.03432498
-0.06616316 -0.012702919 -0.04860611 0.011811696 -0.050761092 -0.052620932 0.03342044 0.03613948
0.013811579 0.010427907 0.054604396 0.011610961 0.07746458 0.037437957 -0.030713521 -0.06678299
0.078074165 -0.0137546975 0.0620533 -0.052115303 0.043013275 0.04228846 -0.0018664937 -0.02077065
0.03343767 -0.06353565 -0.010698029 -0.062511586 0.066186376 -0.03317248 0.015568018 0.013385742
-0.012019725 0.043340676 0.051344126 -0.017004544 0.028897993 0.045670092 -0.01122478 0.010355057
0.042326164 0.0663576 -0.05865498 -0.011466462 0.04289272 0.023252774 -0.011470826 -0.0386907
-0.05509035 -0.0004844806 0.07561361 0.0018249303 -0.04054511 0.0015057668 0.06396672 0.067404
-0.07415171 -0.05559168 0.028040677 0.05992594 0.026414596 -0.0013567749 -0.040391736 -0.07225304
0.047547497 -0.01709966 0.041535832 -0.06560043 -0.0047134412 0.03156808 -0.04776421 -0.012600288
0.0009476739 -0.007022021 -0.021934269 0.022614995 0.03596288 -0.006689012 0.048053935 0.0586381

layers_1.6.weight f4 [200, 200]
00000000: 54ed 0d3d 5a44 2e3b f003 9abb e06d c8bc
00000010: a774 5cbc 3b41 763d 0e93 533d e371 51bc
00000020: b38f d1bc 1273 163d 121f 4a3d d797 51bd
00000030: 9d5c 583d c2ae 803d 0038 bb38 90ed 7d3b
00000040: 2cf8 00bd 1f02 933d d03b 46bd 9548 1c3c
00000050: 9397 893d 8c04 9cbc a8ac 7ebd 7cd8 28bd
00000060: 4c04 293c c06e 563c f0ab df3c 196f 083d
00000070: 1857 fa3c 886b a83b ba0d b03c 91be b1bc
00000080: 26b5 d7bb 4611 4b3d 8df4 65bd ff6b 58bd
00000090: c64c 4cbd f478 47bd 9777 683d 412e 573c
000000a0: 8caa 22bd 985b cb3c 0568 933d bd4e 153d
000000b0: be3d abbc a9de dbbc 05ab 753c d801 82bd
000000c0: 41cc 903d 02fc 043d abf6 5fbd 8547 1cbd
000000d0: 119d 313d e0e2 e03b cd44 353d 587a d1bb
000000e0: 4376 7d3c 686c cdbc 2f88 1dbd 6c87 80bd
000000f0: 73e9 b3bc 59af 823d 2604 02bc 3f9c 1fbd
00000100: 2950 473d 0d19 623c a8c6 1d3d b251 363d
00000110: 75aa 203d 8919 d1bb c479 a73c 72b4 26bd
00000120: 33a2 6e3b 25f3 8f3d d01c a03b 25d5 3d3d
00000130: e7fb 803b b9d2 e3bc 2c2e 823c 3253 23bd
00000140: 90d0 743c cc50 853d e173 053d e708 70bd
00000150: 8a10 943d deff 153d d131 3c3d 14f4 2b3d
00000160: 823c 94bd a9c2 343d e923 04bd e756 88bd
00000170: 5f49 d4bc 45f8 79bd f220 753d b877 b8bc
00000180: 3a74 723d 462d b23b 4285 ca3c bf0f 813d
00000190: 1ea3 0fbd 2761 28bd d28e b2bc 8777 903d
000001a0: 6f31 7e3d 178e 84bd 3c75 8d3d 1da2 2ebd
000001b0: 819c 4fbc 18f1 003d 1fd0 543d e4ba 4d3d
000001c0: 0b9e 54bd cd03 bdbc cda3 4dbd 1820 65bc
000001d0: ccbe f83c 04a6 4b3d 77a9 973c 1024 b0bc
000001e0: 86a4 9dbc cd06 1cbd 80a8 2cba 304e aebc
000001f0: 7b08 473d 6a59 2e3d afe1 203c 7584 25bd
00000200: 106a 06bd 8ab6 d0bc b739 863d 129e 80bb
00000210: 93e6 87bd cd6e 4f3d f40e 80bc e0b9 55bd
00000220: 66c7 303d d07c 2ebd a368 883d dc9c e9bc
00000230: 8974 883d 4f34 d93b f19f 003d ddf0 8abd
00000240: e0bf b23b 0038 e7bb 1867 833d 3b80 513d
00000250: 9397 8a3c 385d 51bd cf5f 163c 91b4 283d
00000260: 83c4 8abc ae5b c2bc 7fd2 8fbc 0182 39bc
00000270: 4c58 3d3d 7c1e 8ebc 3d97 123d bf09 333d
00000280: c370 efbb a3e7 803d 8662 633d c48d 163d
00000290: 93a7 5fbd 5852 57bd 55f0 14bd 6a78 77bc
000002a0: 6844 0dbc 91af 57bd 97bf 5c3d c039 253b
000002b0: cead 85bd 1040 7f3d d21d fc3c b0c6 8e3d
000002c0: ab99 27bd 6669 87bd 2c5f c1bc 5d05 1b3b
000002d0: 3b9d 72bd 9806 bd3c d0ce d33b 79bc 36bd
000002e0: d538 833d 0497 273d 7b54 a73a 0757 4d3d
000002f0: a642 f2bb 4efd 8cbd d0ca 7e3c 46c2 b53c
00000300: 01c6 e1bc fe9e 6fbd 1d58 663d a96b 623d
00000310: fb0a d83c 5d5d 0ebd d0ab e7bb c436 283d
00000320: 1e04 733d 2467 b53c e685 43bd 98f2 c9bc
00000330: dc91 4bbd 7663 06bd 3414 73bd 90a7 5dbd
00000340: 9399 65bd 8cad 0f3d 6673 fdbc 4672 5b3d
00000350: 8aec 683d 2cda 1abc a07d 11bb 3c47 41bc
00000360: 54cb 8bbd 7ef0 d4bc 3fae 813d 96a4 013d
00000370: 7ccf f33c bef3 1dbd 243a d43c 349e 85bd
00000380: 62bd 62bd a797 80bd 9ec7 8bbd 1aea 753d
00000390: 00f9 f339 208f bc3b cabc c5bc dd61 79bd
000003a0: e035 54bd 02ba 653d 6ea2 733d ba84 86bd
000003b0: 1422 debc 9c49 ac3c 8481 1c3d 7cb0 febc
000003c0: fe48 00bd e26b 6d3d d115 8c3d a6ff 133d
000003d0: 981e c6bc 309f e1bc 6ad5 1a3d a8b5 81bd
000003e0: 200f 8d3b b0de fb3c f4bc 62bc f46b 90bd
000003f0: ccd3 ae3c f272 0d3d b041 a03c 829a 85bc
0.03465016 0.0026591034 -0.0047001764 -0.024466455 -0.013455546 0.060120802 0.051653914 -0.0127835
-0.025581216 0.036730833 0.049346037 -0.051170196 0.052822698 0.062833324 8.927286e-05 0.0038746335
-0.031486675 0.07178139 -0.048396885 0.009538789 0.067183636 -0.019045137 -0.062176377 -0.04122208
0.010315966 0.013087928 0.027303666 0.033309076 0.030559108 0.005139772 0.02149092 -0.021697314
-0.006582874 0.04957702 -0.056141425 -0.052837368 -0.049877904 -0.048699334 0.056754675 0.013133586
-0.039713427 0.024823949 0.071975745 0.036452044 -0.020903464 -0.026839571 0.0149943875 -0.06348008
0.07070208 0.032466896 -0.0546786 -0.038154144 0.04336268 0.006862983 0.044255067 -0.0063927583
0.01547009 -0.025076106 -0.038459953 -0.0627583 -0.021961903 0.06381101 -0.007935559 -0.038967367
0.04866043 0.013799918 0.03851953 0.044511504 0.03922506 -0.006381218 0.020443805 -0.04069943
0.0036412596 0.07028798 0.004886247 0.04634585 0.003936279 -0.027810441 0.015891157 -0.039874263
0.014942303 0.065095514 0.032581214 -0.05860224 0.07229717 0.036620967 0.045945946 0.041980818
-0.072381034 0.044130955 -0.03226081 -0.066572 -0.025913892 -0.061027784 0.059845872 -0.022518024
0.059192874 0.005437526 0.024721745 0.063018315 -0.03506767 -0.041108277 -0.021796618 0.07054048
0.062058862 -0.06472414 0.06907126 -0.042635072 -0.012671591 0.031479925 0.051956292 0.05022706
-0.051908534 -0.023073101 -0.05020504 -0.0139847025 0.030364417 0.04971887 0.018513424 -0.021501571
-0.01924349 -0.038092423 -0.0006586388 -0.021277517 0.048592072 0.04256574 0.009819432 -0.040409524
-0.032815993 -0.025477666 0.06553977 -0.0039250934 -0.066357754 0.050642777 -0.01563213 -0.052179217
0.04315891 -0.0425995 0.06660583 -0.02851718 0.06662852 0.00662855 0.031402532 -0.06784222
0.005455002 -0.0070562363 0.06416148 0.05114768 0.01691798 -0.05111429 0.009178116 0.041187827
-0.016939407 -0.023725357 -0.017556427 -0.011322499 0.046226785 -0.01734852 0.035788763 0.043710466
-0.0073071434 0.06294181 0.05551388 0.036756292 -0.05460317 -0.052568763 -0.03636201 -0.015104393
-0.008622266 -0.052657668 0.05389365 0.0025211424 -0.06527291 0.062316954 0.030775938 0.069714904
-0.040918034 -0.066119 -0.023604952 0.002365432 -0.059231978 0.023074433 0.006463863 -0.044613335
0.06407324 0.040915504 0.0012766266 0.050131824 -0.007393199 -0.068842515 0.015551284 0.022187363
-0.027560236 -0.058501236 0.056236375 0.055278454 0.026372423 -0.034757007 -0.007070042 0.041067854
0.0593301 0.022143908 -0.047735117 -0.02465181 -0.04969965 -0.032809697 -0.05934544 -0.05411488
-0.056054663 0.035077617 -0.030938815 0.053575777 0.056866206 -0.00945143 -0.0022200122 -0.011796769
-0.06825891 -0.025993582 0.06332063 0.031651102 0.029762022 -0.03856253 0.02590663 -0.065243155
-0.05535639 -0.062789254 -0.06825183 0.06003771 0.0004653409 0.0057543665 -0.024137873 -0.060884345
-0.05180919 0.056085594 0.059481077 -0.06568284 -0.02711586 0.021031193 0.038209453 -0.031090014
-0.03131961 0.057964213 0.06840099 0.036132477 -0.02418451 -0.027541727 0.037801184 -0.06333476
0.0043047816 0.030745834 -0.013838995 -0.070518404 0.021341227 0.03453345 0.019562572 -0.016309027

layers_1.6.bias f4 [200]
00000000: ade7 dc3c e45d e1bc 6b10 253d f85a 193d
00000010: 04cb e1bc 2184 823d fc4e 7c3c f767 15bd
00000020: f8c8 463d a051 f3bc ed85 ac3c a4f1 8fbc
00000030: 1997 02bd 9f4b 623d a4c2 7c3d 24d9 8f3c
00000040: c3df 833c bc63 953d 53b5 5dbd 769e 1d3d
00000050: e0e8 41bd 9933 4b3d dd49 103d 5d18 4a3d
00000060: 4bf8 323d 610e f3bc 1209 8bbd 7991 0fbd
00000070: d006 de3b 1d09 47bd 6261 5abd 238d 65bd
00000080: 9699 d9bc 4c94 823c f0f1 a93b 68b6 8abc
00000090: cdde f83c 3fa1 163d 71a0 ecbb 7905 1e3c
000000a0: d93c d8bc 2d66 773d 8360 80bd 21ff e5bb
000000b0: 86b4 3a3d c040 67bd af3e b33d 5019 62bd
000000c0: 0452 063d 24f0 803c 94a3 86bd 3ea0 04bd
000000d0: 36c5 653d bed1 11bc 720a 383d 722b 8bbd
000000e0: 4ace 31bc 0084 d7bb c42d 8f3c b0e7 2a3d
000000f0: d01b 313d d6b6 9a3a 5a0a 8dbd 9ea4 673d
00000100: d88d 2bbd 93d5 1c3d e109 1cbd bfc8 65bd
00000110: d5fa 263c d3af 353c 9db0 8a3d 69a8 04bd
00000120: 4973 563d b46c 14bc 9cd2 b33c f4dd cc3b
00000130: 3a44 173d 0e0c 443d 0422 933a 10da 863b
00000140: 74d6 3d3d c576 033d 8d86 7b3c c482 3a3d
00000150: ae6b 103b cc95 bb3c 1d3d b5bc 4a72 963c
00000160: 90dd c3bc 06db c6bc a168 5ebd a87a 81bc
00000170: 156b bf3c be53 32bd 8503 373c 803f bd3b
00000180: 3846 03bc 515b 61bd 7940 993b dd3c 68bc
00000190: dbc3 44bd 15d6 40bc 544e 26bd 9ee5 523c
000001a0: 99db 84bd ae2a 493d 0387 37bd 2231 853d
000001b0: 9373 04bd 991d 723c 5f2c 49bc b244 8a3d
000001c0: fb73 50bd f1b4 3b3c 22c1 633c d12e 793c
000001d0: a4fe 043d bc0d 1cbd 8d88 48bd 62c8 143d
000001e0: a6c1 15bc 57a7 403d a5c2 533d 14a2 74bc
000001f0: e34c 17bc 09bc 81bd 72a0 77bd 6403 073d
00000200: 171a 07bc d6ca 163d 91b6 2ebd a868 81bd
00000210: 4e6e 503c 15fb 05bd 12c1 8d3d 35b9 be3b
00000220: 2e79 67bd 3545 01bd fd05 2a3d 6900 653a
00000230: 4515 433d 571f f33c d959 8dbc 49d0 44bd
00000240: d412 56bd 4ca0 32bd 8651 6f3d 01fa 3d3c
00000250: 3c92 123d 3e7a 793d 5cbe 513d fbb9 fabc
00000260: e875 98bc 6d46 70bb 5a2a d5bc 8d4d 5c3b
00000270: c9d5 7fba 5731 c3bc 378e 24bd 1f10 81bb
00000280: b013 f43c 7cf8 333d d417 363d 19f1 59bb
00000290: dc2c 6ebd 7051 f2bb a867 ccbc 363e a9bc
000002a0: bbf8 a0bc 7578 fe3c ec0f d3bc 330c 85bd
000002b0: 1da4 303c ac6e 46bc 5f6c 07bd c074 0b3d
000002c0: f68f f6bc 23a2 0c3d 2013 7abc eda3 92bc
000002d0: 5aa1 df3c c572 62bd 6e14 2dbb 7f52 8dbd
000002e0: 25d3 723d 04ed 67bc f28c 8fbc 6355 463d
000002f0: c44d 663d a564 27bd 576a 58bd 1d2f 16bd
00000300: 5f7b 4cbd 8b46 74bd 9bd0 2fbd 0c33 023d
00000310: a2be 66bd a453 64bc dce6 bfbc 4cec 4dbc
0.02696594 -0.02751059 0.04029886 0.03744027 -0.027562626 0.06372858 0.015399691 -0.0364761
0.048531502 -0.029702008 0.021059955 -0.017571278 -0.03188238 0.0552479 0.06170906 0.017559595
0.016097909 0.072944134 -0.054128002 0.0384812 -0.047341228 0.049609754 0.03522669 0.04933964
0.043693822 -0.029669942 -0.067888394 -0.035050843 0.0067757145 -0.048592675 -0.053315528 -0.0560428
-0.026562493 0.015939854 0.005186312 -0.016932681 0.030379677 0.03677487 -0.0072212745 0.0096448595
-0.026396202 0.060400177 -0.06268408 -0.007018939 0.045582317 -0.056458235 0.0875219 -0.05519992
0.03279306 0.015739508 -0.06574169 -0.03237938 0.056096278 -0.008900104 0.044931836 -0.06795396
-0.010852406 -0.006577015 0.017477877 0.04172486 0.043239415 0.0011803757 -0.0688674 0.056553476
-0.04188332 0.038289618 -0.03809536 -0.05609965 0.010191639 0.011089283 0.067719676 -0.03238717
0.05235604 -0.00905912 0.021951012 0.006252045 0.0369303 0.04786306 0.0011225347 0.0041153505
0.046347097 0.03209569 0.015351904 0.045534864 0.0022036838 0.022898577 -0.022123868 0.018365044
-0.02390936 -0.02427436 -0.054299 -0.015805557 0.02336649 -0.043536894 0.011170273 0.005775392
-0.008012347 -0.055018727 0.004676875 -0.014174667 -0.048038345 -0.011769791 -0.040602043 0.012872128
-0.064871974 0.04911297 -0.04480649 0.06503512 -0.032336783 0.014777564 -0.012278645 0.06751384
-0.050891858 0.011456714 0.013901027 0.015208916 0.032469407 -0.038099036 -0.04895835 0.036323912
-0.009140408 0.047034588 0.0516993 -0.014931221 -0.00923464 -0.06334693 -0.060455747 0.032962218
-0.008245966 0.036814533 -0.042654578 -0.0631879 0.012721611 -0.032710154 0.06921591 0.0058204182
-0.05651205 -0.03156014 0.041509617 0.0008735718 0.047627706 0.02967803 -0.017254757 -0.0480502
-0.05226405 -0.043609902 0.058427356 0.01159525 0.03578399 0.060907595 0.05120693 -0.03060626
-0.01861091 -0.003666307 -0.026021171 0.003361556 -0.00097593345 -0.023827238 -0.04017469 -0.0039386894
0.029794544 0.043938145 0.044456318 -0.0033255278 -0.05814825 -0.007394962 -0.02495177 -0.020659547
-0.019649854 0.031063298 -0.025764428 -0.064964674 0.010781315 -0.012111347 -0.033062335 0.03404689
-0.030097943 0.034334313 -0.015263349 -0.017900432 0.027298618 -0.055285234 -0.0026409882 -0.069005005
0.059283394 -0.01415563 -0.017523263 0.048421275 0.056226507 -0.040867466 -0.05283579 -0.036666024
-0.049922343 -0.059637588 -0.04292355 0.031786963 -0.056334145 -0.013935957 -0.023425512 -0.012568545
